trained_model.pth (torch, 160643 bytes, 4 tensors)

fc1.weight f4 [50, 784]
0	0xbc1c93f9	-0.009556764
1	0xbb192796	-0.0023369542
2	0x3b1edde6	0.0024241148
3	0x3cea0554	0.028566994
4	0x3ceb1dc4	0.028700717
5	0xbc27566f	-0.0102134785
6	0x3c793c4e	0.015212132
7	0x3d08df66	0.033416174
8	0xbc3e3a88	-0.011610635
9	0x3cc542d5	0.02407972
10	0xbbf8829f	-0.0075839306
11	0x3c19872a	0.0093706045
12	0x3d11f207	0.035631206
13	0x3cedc3e7	0.029024078
14	0xb90116b4	-0.00012310856
15	0x3d12a7dd	0.03580462
16	0x3bc4116b	0.0059835217
17	0x3a806748	0.0009796405
18	0x3c225096	0.0099069085
19	0x3caafa6a	0.02087136
20	0xbbd4baf3	-0.0064920126
21	0xbcdf2dfb	-0.027243605
22	0xbcb140c8	-0.021637335
23	0x3c99942b	0.01874741
24	0x3cf80b25	0.030278752
25	0xbc364f40	-0.011127293
26	0x3cbb60b9	0.02287327
27	0x3cb735f9	0.022364603
28	0x3d126555	0.03574117
29	0xbc9f47d4	-0.01944343
30	0xbce11e81	-0.027480366
31	0xbb82c12f	-0.0039903144
32	0x3cc87205	0.024468431
33	0x3afe65eb	0.0019409036
34	0xbc2e8be0	-0.010653466
35	0xbce87dff	-0.028380392
36	0x3b5ea5e1	0.0033973383
37	0x3ba32750	0.0049790516
38	0xbcbf226e	-0.023331847
39	0xbd49a389	-0.049228225
40	0xbcc91221	-0.024544777
41	0xbd602f8e	-0.05473285
42	0xbc477080	-0.012172818
43	0x3bf059b4	0.007334912
44	0xbcd87180	-0.026421309
45	0xbbd7737a	-0.006575045
46	0xbaae2684	-0.0013286625
47	0xbd263670	-0.04057926
48	0x3cfab033	0.030601596
49	0x3cb183ed	0.021669352
50	0xbc187ad9	-0.009306633
51	0xbc31d5e7	-0.010854221
52	0xbceccbf4	-0.028905846
53	0xbce4eeb5	-0.027945856
54	0xbccca70e	-0.024982002
55	0xbcf4276b	-0.029803952
56	0xbba6c2b8	-0.0050891303
57	0x3aa9dac8	0.0012958879
58	0x3ca88b0e	0.020574119
59	0x3cefe308	0.029283062
60	0xbcdc41a0	-0.026886761
61	0xbc48b63e	-0.012250481
62	0x3bd47205	0.0064833187
63	0xbd06561f	-0.032796975
64	0xbc8bb734	-0.017055131
65	0xbc99c2cf	-0.01876965
66	0xbdd0df9a	-0.101988986
67	0xbda7c683	-0.0819216
68	0xbde1130e	-0.109899625
69	0xbe132157	-0.14368187
70	0xbe5442f4	-0.20728666
71	0xbd8df7f6	-0.069320604
72	0xbd3677aa	-0.044547714
73	0xbd385e24	-0.045011654
74	0x3d12a0f4	0.035798028
75	0xbce3bb51	-0.02779928
76	0xbc8d59c6	-0.017254721
77	0xbc380cc9	-0.011233517
78	0xbd17726f	-0.036974367
79	0xbd388499	-0.04504833
80	0xbcea646b	-0.028612336
81	0xbbcc19b2	-0.006228649
82	0x3d113fd6	0.03546127
83	0xbc256dcb	-0.010096977
84	0xbcc9f440	-0.0246526
85	0x3d08ba44	0.03338076
86	0x3b5b97dd	0.0033507266
87	0xbcda55ce	-0.026652243
88	0x3cc5442d	0.02408036
89	0x3cfcc5b5	0.030855993
90	0xbccd933f	-0.025094626
91	0xbd4e77e5	-0.05040731
92	0xbdef41aa	-0.11682446
93	0xbe147c83	-0.14500622
94	0xbe1a774b	-0.15084569
95	0xbe1a9f7c	-0.15099901
96	0xbe24a885	-0.1607991
97	0xbe91c33f	-0.28469273
98	0xbe70e792	-0.23525837
99	0xbdb6244a	-0.0889364
100	0xbd80be7d	-0.06286333
101	0xbd827ee3	-0.06371858
102	0x3db094a7	0.08622103
103	0x3dae0edc	0.08498928
104	0x3daaf3b7	0.08347266
105	0x3dc57051	0.09640563
106	0x3de409c0	0.11134672
107	0xbd09ddfa	-0.03365896
108	0xbdc48d16	-0.095972225
109	0xbd08996a	-0.033349432
110	0x3bc1c0cd	0.005912876
111	0xbcc9ef48	-0.024650231
112	0x3d08cec0	0.033400297
113	0x3b2d8816	0.0026478819
114	0x3d829707	0.063764624
115	0x3cc021c6	0.023453604
116	0xbcee634f	-0.029100088
117	0xbc6a2eda	-0.014293397
118	0xbceed9e7	-0.029156638
119	0xbdb044b0	-0.08606851
120	0xbe3a500e	-0.18194601
121	0xbe32ef81	-0.17474176
122	0xbe31acd5	-0.17351086
123	0xbe2cda1b	-0.16880076
124	0xbe23655f	-0.15956639
125	0xbe5001a2	-0.20313123
126	0xbe2a4cdc	-0.16630882
127	0xbdb9ca6b	-0.09071811
128	0xbcec9f92	-0.028884683
129	0xbc2bbe83	-0.010482433
130	0x3e0905ef	0.1338117
131	0x3d1a6c2f	0.03770083
132	0x3d5cf583	0.053945076
133	0x3d805959	0.06267042
134	0x3e057206	0.13031778
135	0x3d6672e9	0.05626193
136	0xbd0b58bc	-0.03402017
137	0xbceb133c	-0.028695695
138	0xbc3505df	-0.011048763
139	0xbc8a8ae7	-0.016911937
140	0xbd06b3f7	-0.03288647
141	0xbceda0e6	-0.029007386
142	0xbce79777	-0.028270466
143	0xbb72544e	-0.003697652
144	0xbd6f6bec	-0.05845253
145	0xbd7f85e8	-0.062383562
146	0xbd857b4a	-0.06517656
147	0xbe263187	-0.1622983
148	0xbe2d9a62	-0.16953424
149	0xbe41e6db	-0.1893572
150	0xbe4a465a	-0.197534
151	0xbdd31f29	-0.10308678
152	0x3d298de7	0.041395094
153	0xbdbc47dd	-0.09193394
154	0xbd982e6b	-0.074307285
155	0xbe0f4206	-0.1399003
156	0x3adfeaaf	0.0017083491
157	0xbcfcc130	-0.030853838
158	0xbe037662	-0.12838128
159	0xbd6798d0	-0.056542218
160	0x3cabac51	0.02095619
161	0xbcad8efc	-0.021186344
162	0x3dbb1a0f	0.0913583
163	0xbda76cca	-0.08175047
164	0xbc9107ab	-0.017703852
165	0x3cac81a3	0.02105791
166	0xbda69b4f	-0.081350915
167	0xbc485360	-0.012226909
168	0x3bb8044c	0.0056157466
169	0x3d151829	0.036399994
170	0xbc204bce	-0.009783698
171	0xbce38ef4	-0.027778126
172	0xbd403660	-0.046926856
173	0x3d058641	0.032598738
174	0xbe00ee68	-0.12590945
175	0xbdf131be	-0.11777066
176	0xbd800809	-0.062515326
177	0x3c51b696	0.01279988
178	0xbd43e754	-0.047828034
179	0xbd251b70	-0.04030937
180	0xbc9a27ac	-0.018817745
181	0xbddd1434	-0.10794869
182	0x3ca39c83	0.019972092
183	0xbdb9fc43	-0.09081318
184	0xbe084801	-0.13308717
185	0xbd893b0e	-0.06700717
186	0xbdbf39e5	-0.093372144
187	0x3d8059fd	0.06267164
188	0x3d73e026	0.059539936
189	0xbd89b04d	-0.0672308
190	0xbc323cf3	-0.010878789
191	0xbc2e0df1	-0.010623441
192	0x3d5857ea	0.052818216
193	0x3dfec4e4	0.12439898
194	0x3d6f8480	0.05847597
195	0x3c9c8359	0.0191056
196	0xbce1b865	-0.027553746
197	0x3c715f55	0.014732202
198	0xbba5cd32	-0.0050598616
199	0x3c63ca19	0.013903164
200	0xbd9b8df0	-0.07595432
201	0xbaadda5e	-0.0013263931
202	0xbe0991db	-0.13434546
203	0xbd49e7e1	-0.049293403
204	0x3cd39536	0.025827985
205	0xbbc721a8	-0.00607701
206	0x3d6ef84b	0.05834226
207	0xbd166af6	-0.0367231
208	0x3c8940a7	0.016754461
209	0x3d35fe77	0.04443213
210	0x3c7d3ce0	0.015456408
211	0x3ca729a4	0.020405598
212	0x3d34ab41	0.044108633
213	0xbd8be7ec	-0.06831345
214	0x3cc51564	0.024058051
215	0x3ddf9140	0.10916376
216	0x3d3c04a2	0.045902856
217	0x3d2d6142	0.04232908
218	0x3d91ec18	0.071251094
219	0x3db31c37	0.08745616
220	0xbd5ee1bb	-0.054414492
221	0xbd1ac503	-0.03778554
222	0x3de47fdf	0.11157202
223	0xbcee38eb	-0.029079875
224	0xbcc40b11	-0.023931058
225	0xb9b13288	-0.0003379772
226	0xbc43e0f7	-0.011955491
227	0xbcc064f2	-0.023485634
228	0xbdc50b96	-0.096213505
229	0x3bb7a6de	0.005604609
230	0x3d3c7988	0.04601434
231	0x3d90c50d	0.070688345
232	0xbc21b88a	-0.009870658
233	0x3db6ee4c	0.0893217
234	0x3d0bec4b	0.034160893
235	0xbc12f9ab	-0.008970658
236	0xbd863ba8	-0.06554347
237	0x3ba1fb80	0.004943311
238	0x3c0fdaef	0.008780225
239	0x3ceb5821	0.028728547
240	0xbd2c5ca8	-0.04208055
241	0xbd82577c	-0.063643426
242	0x3d97af20	0.07406449
243	0xbc7db9bf	-0.01548618
244	0xbc108cb3	-0.008822608
245	0x3d0951ac	0.033525154
246	0x3d08f5c4	0.033437505
247	0x3e39f4a6	0.18159732
248	0x3e40748f	0.18794464
249	0x3e7875df	0.24263714
250	0x3dae9950	0.08525336
251	0xbc09d083	-0.0084115295
252	0x3c8f6f6b	0.017509183
253	0x3a0824a6	0.00051934493
254	0x3c0fb731	0.008771704
255	0xbdb3cc5a	-0.08779211

fc1.bias f4 [50]
0	0xb9c121c8	-0.00036836998
1	0x3be64717	0.0070275175
2	0x3d0c585b	0.03426395
3	0x3bcd1876	0.0062590195
4	0x3ca68264	0.020325847
5	0x3caf1b71	0.02137539
6	0x3d58e655	0.052954037
7	0x3cbebafe	0.023282524
8	0xbbd1eceb	-0.0064064167
9	0xbd3ca787	-0.046058204
10	0xbd1368eb	-0.03598873
11	0x3c58faf6	0.0132434275
12	0x3c95e1da	0.018296171
13	0xbc9e5413	-0.0193272
14	0x39f7c177	0.00047255654
15	0x3cd5eb31	0.026113125
16	0x3c4925b8	0.012277059
17	0x3d4f1ce7	0.050564673
18	0x3ca4e974	0.02013085
19	0x3c96f308	0.018426433
20	0xbb9c0ec3	-0.004762502
21	0xbc5f9406	-0.013646131
22	0xbc83b077	-0.016075356
23	0x3d3053db	0.04304872
24	0x3c4dd821	0.012563736
25	0xbb09cee4	-0.0021027857
26	0xbd303c50	-0.04302627
27	0x3c333764	0.010938499
28	0xbd0491de	-0.032365672
29	0x3bf94f4b	0.0076083294
30	0x3c0cdf75	0.008598198
31	0x3d1a685b	0.037697177
32	0xbcf31ab2	-0.029675815
33	0xbd02876f	-0.03186744
34	0xbca69559	-0.020334886
35	0xbc0312aa	-0.008000055
36	0xbd6fa62f	-0.058508094
37	0xbc4703ae	-0.012146873
38	0x3d07b889	0.03313497
39	0xbba8ba45	-0.005149158
40	0x3c966b45	0.018361697
41	0xbbfc6ab8	-0.0077031516
42	0x3c70f1ae	0.014706058
43	0x3cae6665	0.02128906
44	0x3d1d20d1	0.038361374
45	0xbd0050b0	-0.03132695
46	0x3cc4ff71	0.024047585
47	0x3cb79ec0	0.022414565
48	0xbbc25fa1	-0.00593181
49	0xbd43c764	-0.047797576

fc2.weight f4 [10, 50]
0	0xbf15ccdc	-0.58515716
1	0xbdc36ee9	-0.09542639
2	0xbe5d4bb3	-0.21610908
3	0xbe511f74	-0.20422155
4	0x3c957de4	0.018248506
5	0xbde8ce98	-0.1136753
6	0x3ddb60e6	0.10711841
7	0x3db782b3	0.08960476
8	0x3e81e417	0.2536933
9	0x3ca86f5b	0.02056091
10	0xbe3bef2a	-0.18352953
11	0x3befe87d	0.007321416
12	0x3e8f2396	0.27956837
13	0x3d5cd3cd	0.053912926
14	0xbe4520f3	-0.1925085
15	0x3e2f0641	0.1709223
16	0x3d8544d4	0.065072685
17	0x3e652f71	0.22381379
18	0x3cdf2308	0.027238384
19	0x3d15d932	0.036584087
20	0xbcadd4e2	-0.021219674
21	0x3e1c5e02	0.15270236
22	0xbf34985e	-0.70544994
23	0x3e533559	0.2062582
24	0xbdc47392	-0.09592356
25	0x3dd1dd6d	0.10247312
26	0x3da720dd	0.08160565
27	0xbe327442	-0.17427161
28	0xbe4610f7	-0.19342409
29	0xbee39694	-0.4445082
30	0x3e5432a4	0.20722443
31	0x3e3f7bd0	0.18699574
32	0xbe8e1fda	-0.27758676
33	0xbe483b85	-0.19553955
34	0xbebb1b50	-0.36544275
35	0x3d938803	0.072036766
36	0x3dcb09f6	0.09914009
37	0x3e1ad531	0.15120389
38	0x3e7f74e2	0.24946931
39	0xbc283bca	-0.010268161
40	0xbee77687	-0.45207617
41	0x3db2b8a7	0.08726626
42	0x3e0c4fcb	0.13702314
43	0xbf20af9a	-0.62767947
44	0x3da6e357	0.081488304
45	0xbea910a9	-0.33020523
46	0x3d1a4011	0.037658755
47	0xbec16b6c	-0.3777727
48	0xbeb21957	-0.34784958
49	0xbda14e98	-0.07876319
50	0x3c925190	0.017861158
51	0x3c4dceca	0.012561509
52	0xbd569fc8	-0.052398473
53	0x3e28da29	0.16489471
54	0x3ebf46ef	0.37358806
55	0xbe263e46	-0.16234693
56	0xbe9a3851	-0.3012109
57	0xbeb17449	-0.3465903
58	0x3d3ffd66	0.04687252
59	0xbef14b8b	-0.47127947
60	0x3e3b2f67	0.18279801
61	0x3debdb13	0.115163945
62	0xbed44cfb	-0.4146498
63	0xbe3d6bdf	-0.18498181
64	0x3de5992b	0.11210855
65	0x3d43458d	0.04767375
66	0xbeb1e6ee	-0.34746498
67	0xbe611903	-0.21982197
68	0xbdf3f683	-0.11912253
69	0x3e4ff147	0.20306884
70	0xbe1be273	-0.15223102
71	0xbeae30e4	-0.34021676
72	0x3e482ccd	0.1954834
73	0x3e392d84	0.18083769
74	0x3e5a0d59	0.21294154
75	0xbdac4e0f	-0.08413326
76	0x3e1955e2	0.14974168
77	0xbe0d8686	-0.13820848
78	0x3e7855c5	0.24251468
79	0xbe2fa802	-0.17153934
80	0x3d1960d0	0.037445843
81	0xbeb27b93	-0.34859905
82	0x3d962843	0.07331898
83	0xbd334c46	-0.043773912
84	0x3ded6fae	0.11593567
85	0x3e165a29	0.14682831
86	0x3e1f2da0	0.15544748
87	0x3dbb002d	0.09130893
88	0xbef8e009	-0.48608425
89	0xbccbe178	-0.024887785
90	0xbea412e4	-0.32045662
91	0xbe3f819d	-0.18701787
92	0x3d09f021	0.03367627
93	0x3d62c69c	0.05536519
94	0x3e45f13d	0.19330306
95	0xbd32ed48	-0.04368332
96	0x3ea1291d	0.3147668
97	0xbd09bd8c	-0.03362803
98	0x3e824d16	0.25449437
99	0x3e828b80	0.25497055
100	0xbdc799b0	-0.097461104
101	0xbcb9592b	-0.022625526
102	0xbe9eb464	-0.30997002
103	0x3d3ea53c	0.0465443
104	0xbe8de542	-0.27713972
105	0xbd7259f6	-0.059167825
106	0xbca4a1bf	-0.020096658
107	0x3bd85b65	0.006602692
108	0x3e43fd13	0.19139509
109	0x3e23817c	0.15967363
110	0x3e4fae7b	0.20281403
111	0xbda67dee	-0.08129488
112	0xbde9d47b	-0.114174806
113	0xbead5174	-0.33851206
114	0x3e086a2e	0.13321754
115	0xbdecfa52	-0.11571182
116	0xbe26c106	-0.1628457
117	0x3e945bbb	0.28976235
118	0x3e4cdd7e	0.20006368
119	0xbd917a03	-0.0710335
120	0xbebc6c0d	-0.36801186
121	0xbd1e316e	-0.03862136
122	0xbd3125ee	-0.043249063
123	0x3e4b4841	0.19851781
124	0x3e7aa16a	0.24475637
125	0x3e1d242d	0.15345831
126	0x3e9b71e5	0.30360332
127	0x3db6778b	0.0890952
128	0x3d8133e0	0.063087225
129	0xbdc4addc	-0.096034735
130	0x3df73645	0.12070898
131	0x3dfb090f	0.12257587
132	0x3df7ae00	0.12093735
133	0xbd1627ed	-0.03665917
134	0x3e87bc9a	0.2651108
135	0x3e81454b	0.2524818
136	0xbf1abdcf	-0.60445875
137	0x3e433d09	0.19066252
138	0xbc83633d	-0.016038531
139	0x3d6e9def	0.058256086
140	0x3d966d68	0.07345086
141	0xbed54bb2	-0.41659313
142	0x3c91036f	0.017701833
143	0xbe6adc8d	-0.22935696
144	0x3e37456c	0.17897576
145	0x3e5c8db7	0.21538435
146	0xbd8fc8b7	-0.07020705
147	0xbe7b5d64	-0.24547344
148	0xbe5eea8b	-0.21769159
149	0xbf0942b4	-0.53617406
150	0xbd8e1e7b	-0.069394074
151	0x3d024e0d	0.031812716
152	0xbc997725	-0.01873357
153	0xbc691f67	-0.014228678
154	0xbe8ef70a	-0.2792285
155	0x3e6c7a33	0.2309349
156	0x3e33f689	0.17574514
157	0xbe8a7666	-0.27043456
158	0xbe70feb9	-0.23534669
159	0xbe494fdc	-0.1965937
160	0xbedfe76a	-0.43731242
161	0xbbe85091	-0.0070896824
162	0x3e6ae39c	0.22938389
163	0xbd1fe3d2	-0.039035626
164	0x3e7fb7de	0.24972484
165	0xbe61c87a	-0.22049132
166	0x3d7d32c4	0.061815992
167	0x3dddeed2	0.10836567
168	0x3d97904c	0.07400569
169	0x3d98a379	0.07453055
170	0xbeff4deb	-0.49864134
171	0x3dd1a456	0.10236423
172	0x3cdd5cf8	0.02702187
173	0x3c2ff953	0.010740596
174	0x3af7fa8a	0.0018919271
175	0x3ddcba37	0.10777705
176	0xbe1adc36	-0.15123066
177	0xbdf996c8	-0.12186962
178	0x3d9026ca	0.070386484
179	0x3d5f2122	0.054474957
180	0xbc1211ba	-0.008915359
181	0xbdd14747	-0.10218673
182	0x3ebe8e7e	0.37218088
183	0x3d1291e6	0.03578367
184	0xbe40e3f3	-0.18836956
185	0xbe090077	-0.13379084
186	0xbd8bf05e	-0.06832956
187	0x3dd27d37	0.10277789
188	0xbe91d77b	-0.2848471
189	0xbd40547c	-0.04695557
190	0x3e022eaf	0.12713121
191	0x3dea4ac7	0.11440044
192	0xbe40a0c2	-0.18811324
193	0xbd5cdf48	-0.053923875
194	0xbe3e51ad	-0.18585844
195	0x3de915eb	0.11381134
196	0x3e160b4a	0.14652744
197	0x3d9591a4	0.07303169
198	0x3de7f93c	0.113268346
199	0x3e082a50	0.13297391
200	0x3e1dc798	0.1540817
201	0xbd5456d9	-0.051840637
202	0xbf1c9818	-0.61169577
203	0x3cdcbd7c	0.026945822
204	0xbe93c7d0	-0.28863382
205	0xbec2bf4d	-0.38036576
206	0xbde1f4e9	-0.11033041
207	0x3e06dcbe	0.13170144
208	0xbe40dcd1	-0.18834235
209	0x3df3fa1c	0.11912939
210	0x3df4ec42	0.11959125
211	0xbe793b2e	-0.24338982
212	0xbf0e3dab	-0.5556285
213	0x3e2597ce	0.1617119
214	0x3e29df3b	0.16589062
215	0x3dd4e55e	0.10395311
216	0xbd4121c3	-0.04715134
217	0xbe428b4e	-0.18998453
218	0xbe526cb0	-0.20549273
219	0xbeea996e	-0.45820183
220	0x3e869dd1	0.2629228
221	0xbeb5e7cd	-0.35528412
222	0x3e413d60	0.18871069
223	0xbf274520	-0.6533985
224	0x3ddc98f9	0.10771365
225	0xbecfa66a	-0.4055665
226	0x3e388d42	0.18022636
227	0xbbb0c819	-0.0053949472
228	0x3e89639f	0.26833817
229	0x3e34f946	0.17673215
230	0x3e022546	0.12709531
231	0x3e87e20a	0.26539642
232	0xbed83099	-0.42224577
233	0xbd3eb091	-0.046555106
234	0xbdb9445a	-0.0904624
235	0xbe30e733	-0.17275696
236	0x3e146089	0.1448995
237	0xbf1b387c	-0.60633063
238	0x3c628f84	0.013828162
239	0x3d600365	0.054690737
240	0x3cfa5f19	0.030562924
241	0xbe01441c	-0.12623638
242	0x3d7ab18e	0.061204486
243	0x3dd2189d	0.10258601
244	0x3e0deb4f	0.13859294
245	0xbf7624b8	-0.9614978
246	0x3e1bc2bd	0.15211006
247	0x3db6fdac	0.08935103
248	0x3e22e697	0.15908276
249	0xbe1756a6	-0.14779148
250	0x3e272c8b	0.16325586
251	0xbe0e7d33	-0.13914947
252	0x3eec40e0	0.46143246
253	0x3d9a2c26	0.07527952
254	0x3e9966e5	0.29961315
255	0x3ea034ce	0.31290287

fc2.bias f4 [10]
0	0x3da9a951	0.08284248
1	0xbc4a59d1	-0.012350515
2	0xbdfa38ce	-0.12217866
3	0x3ddd7527	0.10813361
4	0x3d1196f3	0.035544347
5	0xbd05c90c	-0.032662436
6	0x3dcc91f2	0.09988774
7	0x3d07a737	0.033118453
8	0x3e67ac5d	0.22624345
9	0x3c14a234	0.009071875
